…
942658/942658 [==============================]942658/942658 [==============================] - 459s 487us/step - loss: 0.6933 - acc: 0.5022 - val_loss: 0.6932 - val_acc: 0.5033

235664/235664 [==============================]235664/235664 [==============================] - 31s 132us/step

2020-06-13 16:02:04,116 - 6078 - nn.clsf.base - INFO: model precision: {'loss': 0.6931920796582183, 'accuracy': 0.503271607033743}
_________________________________________________________________
Layer (type)                 Output Shape              Param #
=================================================================
conv1d_1 (Conv1D)            (None, 81, 64)            1344
_________________________________________________________________
max_pooling1d_1 (MaxPooling1 (None, 40, 64)            0
_________________________________________________________________
conv1d_2 (Conv1D)            (None, 31, 32)            20512
_________________________________________________________________
max_pooling1d_2 (MaxPooling1 (None, 15, 32)            0
_________________________________________________________________
conv1d_3 (Conv1D)            (None, 11, 16)            2576
_________________________________________________________________
max_pooling1d_3 (MaxPooling1 (None, 5, 16)             0
_________________________________________________________________
flatten_1 (Flatten)          (None, 80)                0
_________________________________________________________________
dense_1 (Dense)              (None, 64)                5184
_________________________________________________________________
dropout_1 (Dropout)          (None, 64)                0
_________________________________________________________________
dense_2 (Dense)              (None, 2)                 130
=================================================================
Total params: 29,746
Trainable params: 29,746
Non-trainable params: 0
_________________________________________________________________


t == 0.01
Epoch 50/50
731100/731100 [==============================]731100/731100 [==============================] - 374s 511us/step - loss: 0.0712 - acc: 0.9735 - val_loss: 0.0578 - val_acc: 0.9790
…
